…
d":10983,"user":{"displayName":"Дмитрий Тетерин","photoUrl":"https://lh3.googleusercontent.com/a-/AOh14GhSk-ydhROS9z6ZnCuRLhLyUE3-i3aosrX5i8wiMA=s64","userId":"06644730980655766491"}},"outputId":"5494ab8d-60ba-4388-e2ea-aa13687f0b0a"},"source":["torchsummary.summary(model.cuda(), (3, 32, 32))"],"execution_count":null,"outputs":[{"output_type":"stream","text":["----------------------------------------------------------------\n","        Layer (type)               Output Shape         Param #\n","================================================================\n","            Conv2d-1           [-1, 64, 30, 30]           1,792\n","              ReLU-2           [-1, 64, 30, 30]               0\n","            Conv2d-3           [-1, 10, 28, 28]           5,770\n","              ReLU-4           [-1, 10, 28, 28]               0\n","           Flatten-5                 [-1, 7840]               0\n","            Linear-6                   [-1, 10]          78,410\n","================================================================\n","Total params: 85,972\n","Trainable params: 85,972\n","Non-trainable params: 0\n","----------------------------------------------------------------\n","Input size (MB): 0.01\n","Forward/backward pass size (MB): 1.06\n","Params size (MB): 0.33\n","Estimated Total Size (MB): 1.40\n","--------------------------------------------
…
d":60762,"user":{"displayName":"Дмитрий Тетерин","photoUrl":"https://lh3.googleusercontent.com/a-/AOh14GhSk-ydhROS9z6ZnCuRLhLyUE3-i3aosrX5i8wiMA=s64","userId":"06644730980655766491"}},"outputId":"3d32c7fe-b12d-486c-da33-dc8c4c013361"},"source":["torchsummary.summary(model.cuda(), (3, 32, 32))"],"execution_count":null,"outputs":[{"output_type":"stream","text":["----------------------------------------------------------------\n","        Layer (type)               Output Shape         Param #\n","================================================================\n","            Conv2d-1           [-1, 64, 30, 30]           1,792\n","       BatchNorm2d-2           [-1, 64, 30, 30]             128\n","              ReLU-3           [-1, 64, 30, 30]               0\n","            Conv2d-4           [-1, 10, 28, 28]           5,770\n","       BatchNorm2d-5           [-1, 10, 28, 28]              20\n","              ReLU-6           [-1, 10, 28, 28]               0\n","           Flatten-7                 [-1, 7840]               0\n","            Linear-8                   [-1, 10]          78,410\n","================================================================\n","Total params: 86,120\n","Trainable params: 86,120\n","Non-trainable params: 0\n","----------------------------------------------------------------\n","Input size (MB): 0.01\n","Forward/backward pass size (MB): 1.56\n","Params size (MB): 0.33\n","Estimated Total Size (MB): 1.90\n","--------------------------------------------
…
